w2.npy (npy, 32848 bytes, 1 tensors)

array f8 [1024, 4]
00000000: 4e37 6e72 d5fb e73f c723 9b81 8877 f53f
00000010: 30ca 0880 99f7 cb3f c966 c751 01d4 eb3f
00000020: 0780 9f99 0918 ec3f 32c0 97e0 f642 ec3f
00000030: d216 254c fccb e33f 0937 3bdb 506b b0bf
00000040: 4721 c160 d4ea e0bf c7f8 66d3 8cad cc3f
00000050: 992c e04e 30ae c5bf 92a3 99a5 7733 aa3f
00000060: fa84 18ec 628f e8bf d9a2 42fb 382b ddbf
00000070: 9d11 f9d8 94cf f43f 6387 f247 66bf e63f
00000080: 9e60 b53a 6ab8 c9bf ce8a 9ccb 09b3 e7bf
00000090: 05a1 f153 36fa e9bf 0d06 5b9a 8bb3 ecbf
000000a0: 27d6 c4a4 bbb1 e03f bf1d 83b7 f2cf 95bf
000000b0: cead f701 8e35 633f fe91 d206 9b6a f33f
000000c0: 0ec5 09ed 74f0 f3bf c100 f1f9 5e6a f93f
000000d0: feb1 dccd b74e bfbf 194f e249 5792 d03f
000000e0: f8a6 bfaf 5d97 d1bf b010 efab adfe d7bf
000000f0: ae1b 195c dde6 b2bf 2f5a 6731 e8de ed3f
00000100: be77 4566 9863 eabf 1523 0348 0dde e63f
00000110: 79da 216b 2f40 da3f d1b8 b61a 6315 e4bf
00000120: 69c8 8429 2013 e53f eb9f bc5b fbb7 fb3f
00000130: d66b 21d4 b977 e23f 6222 3509 4366 00c0
00000140: 256b 6cdf 21f2 eb3f 951d 3301 0d5c dfbf
00000150: 6b89 b3e2 10b8 f03f c499 4922 22b7 e0bf
00000160: 8bd7 e3cd c32a a73f db62 7e0f a095 a83f
00000170: 3bc4 97fb 67f5 ee3f 987b 2d7c 4fb2 d83f
00000180: 112b 8e4c 78ac f5bf b01f bf9a 2b94 c5bf
00000190: 63be 78d8 10fa c6bf 430c c8b1 cf7e f2bf
000001a0: b059 cb13 410a ecbf 9b1a f749 cfe4 ed3f
000001b0: 4df0 1e3f e147 e53f 35f7 2913 d9ff d6bf
000001c0: a79d eb24 41ef e7bf 2f14 9b12 5969 00c0
000001d0: 440b 5fe3 558d e4bf dc9d 0d26 043a e3bf
000001e0: de9f 0d9b 5d58 c6bf fe55 ee99 974f d73f
000001f0: dbec 46f0 65b5 e43f 882f 3121 4d5c efbf
00000200: a34f 514e 1354 fd3f 4ea2 d116 b9c0 00c0
00000210: 352a 08a9 4cab d7bf 809a bc46 02b4 dc3f
00000220: 5a3f 8b1d b102 02c0 0dd9 637e b899 bcbf
00000230: 3650 98ae 9f47 f53f 4ffa 3784 29d6 ee3f
00000240: ada4 0b32 a015 f6bf 6a29 e691 f19f cd3f
00000250: 5ec9 bb9c a0be fa3f 239a 8217 4fd3 eb3f
00000260: ff9f e148 24fe e33f 1360 3e1a d48e febf
00000270: 77ba 23a5 41ab e53f 5446 7aae c132 bd3f
00000280: 77ab 7ab0 a0af e03f b1de 7f8a ad92 c7bf
00000290: ab68 f769 51c3 b7bf a5f5 3f9d a3ea c0bf
000002a0: 9255 043d 2831 e0bf ea2a 3abf 7704 ecbf
000002b0: c0a5 006d 95cf f2bf a070 e380 2bf5 f4bf
000002c0: 8ba8 d4b8 fbde e53f cf02 7f3e 5e6b f0bf
000002d0: f34e 50f1 b6df ec3f 3f60 c801 011d d1bf
000002e0: 4a6b c89c e503 f8bf 3e82 6bde 13f4 d43f
000002f0: a1b9 0bd5 914d b13f 2e9c f11a 6e50 e6bf
00000300: 8d79 5dbf 5f65 dfbf 384f 5846 2465 0240
00000310: e572 e53f e346 fa3f 9d29 971b 8fb3 dcbf
00000320: 94eb 73ed 22d9 e7bf fd96 6e6e c646 e53f
00000330: 44e3 5fd7 7b47 c4bf ae72 7aa9 bc37 c03f
00000340: 26f7 e358 731d b6bf c65b cd47 b647 a5bf
00000350: 36f3 5abc ba3d ab3f 0d5e 404e 3d59 eb3f
00000360: 4e8d 6720 3438 e63f 887f 1a11 8ce0 e73f
00000370: ab20 5ffb 79ac f13f f7ba 74b7 1253 dd3f
00000380: 93a5 dcf3 ed59 e9bf 65be 6602 bacd e3bf
00000390: d485 90d2 cfe4 f63f b5b2 8bc1 e536 dc3f
000003a0: 08c4 9d0c 4a3c f0bf 5c60 3ebe cbe8 ebbf
000003b0: 58c7 a50f 9c2d d4bf 7dac bbad ebef eb3f
000003c0: 9471 343e b882 ed3f 2e6b 7f6f 928a f73f
000003d0: 4047 d91b 8dac d33f 18a8 f5bc 1918 fe3f
000003e0: f389 10e5 81a8 f0bf f09a dd97 c6b6 babf
000003f0: 5278 82de b7e5 bebf 7d46 13d8 4e65 f03f
00000400: d6d9 7973 868b c9bf 0f49 c200 d13d eebf
00000410: 179f 1838 c276 00c0 adb9 ea43 a854 df3f
00000420: 7696 808e 4ce8 edbf 6d52 2198 a29b f73f
00000430: 94aa 9701 52be d63f 0239 fc74 01e9 d93f
00000440: 635d ba7b 1de9 f9bf 8a63 6b9b b1f3 ec3f
00000450: 5c35 92ef 6271 ecbf 50c9 edb3 5118 e43f
00000460: 0779 9074 4a83 fcbf dd58 9a7d d507 e5bf
00000470: 362d b0cb ca1c b2bf 69d0 4db2 1f54 e43f
00000480: 82e1 5261 9d44 f1bf 15bb 434e 32e7 f13f
00000490: 486b 782a d377 d9bf 298e 5aae 1cda e33f
000004a0: 2967 0ff6 40ac febf 1b08 d875 aaf1 b23f
000004b0: 67ff 2bb0 a82c 813f eb65 b333 f2fb da3f
000004c0: 2350 0cc3 ffb7 db3f 4862 825f 0bd8 f5bf
000004d0: 305d 2653 571b f1bf 4439 edad 2712 e53f
000004e0: 3650 d8cf ab3c d7bf a5a5 77cb 6c07 dcbf
000004f0: e644 9999 31b2 ef3f de2f d621 bcc7 e33f
00000500: e053 8f2e 3397 ea3f 1381 3acd f5a0 f1bf
00000510: abae 027e 39e8 eebf 220f c296 9304 c8bf
00000520: 78ed 169b 47fa c9bf 7be5 fc67 c3f5 e43f
00000530: 4ce4 5843 9c97 d13f 4297 94ad 79a5 f43f
00000540: 1b88 8afc d4ff eebf e35d 5fd6 edf1 e7bf
00000550: 7fe7 5430 9116 d83f 4da9 f3f7 a1c2 e1bf
00000560: 320f bec1 b03e f03f e62e 68fa d4a0 e4bf
00000570: fb7c 084f 9a01 e8bf 5182 c1e5 a51f cebf
00000580: 2f04 bdf7 b19c d4bf 1f97 d309 ab78 e63f
00000590: e108 2d7b 9b19 ce3f e7af 0b6e fb64 c3bf
000005a0: 498a 780e f981 f33f 5258 5055 2599 e3bf
000005b0: b88c 6c8d 13e3 ec3f 7039 f85d f235 edbf
000005c0: 165a 15de 86f2 e7bf a8c7 0aeb 290b f13f
000005d0: f01e 417c c020 fbbf 1f5e 3972 0662 9bbf
000005e0: 2249 788e 555f fcbf 4dfc f668 dffa d73f
000005f0: 06b9 a793 5944 fb3f 6c74 df4a d8ec ee3f
00000600: cdb3 ba37 b51d d0bf f3f2 1c0e a1da ebbf
00000610: 738c 05bd c2a3 e43f dbb6 387c ba97 c7bf
00000620: 51b5 f70e 54a1 d03f 9064 d21b 4543 b4bf
00000630: fefa aed2 80cc e63f 049c 826a afe1 d5bf
00000640: cded 00b0 d6f2 dbbf ec48 b116 3d4e f13f
00000650: f641 b0ef bbd1 d9bf 7567 c04d f333 e8bf
00000660: 9ec0 d826 cd54 bf3f b8ff 3fcc a2aa c7bf
00000670: 889e 268a b2a1 ef3f 7604 15a6 7d36 b43f
00000680: 293f ba33 3b64 da3f 47f4 ef5f efef c0bf
00000690: cb8f 5737 0ece d3bf 576c 13cb c947 c63f
000006a0: 88c4 229f f296 ee3f 6a0c b500 9fb6 f5bf
000006b0: ba02 37f9 b2d4 cc3f ee81 7eed 63ce ed3f
000006c0: 1036 4cda 2af3 e5bf 3fcf bc6d e043 f2bf
000006d0: fb5c b329 0a03 ec3f 6226 91ee 0656 d0bf
000006e0: a28a 90e3 a722 e43f 069a 132e 6d18 f43f
000006f0: af9f c6ad da43 f63f 5b41 adeb a8c4 e6bf
00000700: e952 84fb 6253 b53f 37d6 800a 75c7 d23f
00000710: c38a 28af 8873 f4bf 0eb3 70f5 8a5d 8b3f
00000720: 8c89 bd15 a72d 95bf eb98 25fd 1109 ebbf
00000730: e453 37e5 8977 0040 534d 60aa 18bd e4bf
00000740: c538 0803 f45a d3bf ebd5 e804 9660 e6bf
00000750: 0f2f 6c25 8fc3 e43f 87b6 19f7 6bc3 fd3f
00000760: 4d1f 9c23 3a0e f33f 0160 eca1 26f3 fdbf
00000770: 732e a1bc a04a da3f 38bd e738 0578 d73f
00000780: c424 8503 7f0f b63f c2e0 9355 b3d0 e0bf
00000790: 427a ece9 ca91 f9bf 7cd4 b366 b92f edbf
000007a0: 9a9a 3ff1 bbdb e2bf 75ce 4c60 b670 f3bf
000007b0: 1dc2 86ba 1450 f13f cd1c 8b63 bf00 e8bf
000007c0: d41d 607e 9327 dfbf fdcf 63b8 988f e2bf
000007d0: b950 e7b6 b01f e53f 688f 0b06 5718 e23f
000007e0: f12b cf25 a46e e23f b2d2 1e41 5e5c ea3f
000007f0: 65d1 78bf 1d01 f43f bf7d cca6 68cb d33f
0.7494914278956715 1.3416829169020603 0.2184936404388096 0.8696295354122522 0.8779342651796477 0.8831743609025635 0.6186505782322576 -0.0641375098450362
-0.528665722821679 0.22404632875799832 -0.16937831736899936 0.05117391487585289 -0.7675032244916615 -0.4557630971635667 1.3006790614609607 0.710864201090072
-0.20094039789797064 -0.7406052567278836 -0.8117934836891726 -0.8969171538121273 0.5216959207670627 -0.021301071596807605 0.0023448728168113725 1.2135267511849857
-1.2462052592566724 1.588469482740081 -0.12229489112787204 0.25893194403873704 -0.2748636452002837 -0.3749193362275589 -0.07383521555412528 0.9334603276173022
-0.8246576306807964 0.7146059423913323 0.41016755544789124 -0.6276107331994131 0.658584672061136 1.7324174483746855 0.5771149771857107 -2.0499325484600357
0.8733071674099376 -0.4899933349338082 1.044937978317274 -0.5223551435163292 0.045248144991929605 0.04801654996044188 0.9674568094179742 0.3858832085297137
-1.3546069136088514 -0.16858429962144106 -0.17950640268235238 -1.155959791620959 -0.8762517344101095 0.9341808743127616 0.6650243981198486 -0.3593657195232141
-0.7479558678723394 -2.0514394239021594 -0.6422528687329323 -0.6008320563532226 -0.17457170554121054 0.36423292190860923 0.6471433346663632 -0.9800172470363444
1.833026224067887 -2.094103029510996 -0.36983028895398046 0.448486870840874 -2.25131438332748 -0.11172059140867337 1.329986269008271 0.9636428434749379
-1.3802797274495717 0.23144359230020523 1.671539890518566 0.8695445498640918 0.6247731612647839 -1.9098702454703058 0.677155325449191 0.11405573377330686
0.5214389273508989 -0.1841637541071939 -0.09282406651564894 -0.13216061762061063 -0.5060006324517181 -0.8755453810602749 -1.1756796129142089 -1.3098559412674504
0.6834696397757097 -1.0262129250769936 0.9023089135320944 -0.2673952596101152 -1.5009513973552253 0.3273973152227291 0.06758986903489596 -0.6973181272741209
-0.49056237876893577 2.2993855949115662 1.6423065658520326 -0.4484594125211972 -0.7452559125662099 0.6648895413279373 -0.15843151108108533 0.12670095706279966
-0.08638688011339166 -0.04156274439326739 0.053205333225810156 0.8546434906338064 0.6943607933903111 0.7461605390599155 1.104608518524439 0.45819538035986745
-0.792227722447182 -0.6188631102467751 1.4308622574975418 0.4408506765455898 -1.0147190563986914 -0.8721674647995417 -0.3152837899025278 0.873037185022795
0.9222069945276865 1.4713310580616041 0.30740668983081676 1.8808839207872605 -1.041139502318967 -0.1043514366880165 -0.12069272215237106 1.0247333946648773
-0.19957047117686838 -0.9450459494421767 -2.0579876310838574 0.4895420706988272 -0.9346068175552336 1.4754968588432817 0.35536623149406776 0.40484653877582855
-1.6194128831028471 0.9047477756058566 -0.888841121590001 0.6279686464534198 -1.782053428010444 -0.657206292455864 -0.07075183365684698 0.635269020318913
-1.0792516519269104 1.1189444596490763 -0.3979385294675706 0.6203750043245623 -1.9170541393018061 0.07400002839133928 0.008385961414660149 0.42162756966499043
0.4331054119841175 -1.3652452212173944 -1.069175076297892 0.6584661862378103 -0.3630780725227426 -0.43795318479404904 0.9905021667456395 0.6181317005989475
0.830957022607091 -1.1017969147433788 -0.9658477269308227 -0.18763966428024853 -0.20295043061001272 0.6550004035008635 0.27487856461408877 1.2903992443547883
-0.9687294895595672 -0.7482823550189405 0.3763773891438333 -0.5550088732536921 1.0153052871764428 -0.6446328058968589 -0.7501956504455899 -0.23534082144307658
-0.32206391518781435 0.7022299949573813 0.23515647425126132 -0.1515192305881776 1.2192316594379398 -0.612444559696778 0.9027192842662748 -0.912835296186854
-0.7483553254667779 1.065225523122061 -1.69549606835238 -0.026741123887715653 -1.7732749524335039 0.3746870541617156 1.7041869895725212 0.9664117300377604
-0.25181322519602817 -0.8704381251951346 0.6449903194264962 -0.18431788506989374 0.259846701256568 -0.07915145806545554 0.7124637713348816 -0.34189973260294004
-0.4366966933045802 1.0816012274195215 -0.40342615515785896 -0.7563416021905441 0.12238771627812858 -0.18489489529747316 0.9884884546526829 0.07895646385897401
0.4123676304961799 -0.1323222368663741 -0.3094516315888966 0.17406580367864663 0.9559262378808322 -1.357085230600911 0.22524106186576437 0.931444133621026
-0.6859335197092964 -1.1415714537260582 0.8753710569825722 -0.25525067613179975 0.6292304463025469 1.2559634971490836 1.3915659702415544 -0.7115063288747864
0.0833036293082149 0.2934239008494361 -1.2782065240977978 0.013362012496224842 -0.020681963636329168 -0.8448572105669688 2.0583684833059 -0.6480830505046619
-0.3024263410196791 -0.6992902847184131 0.6488719683561345 1.8602103855477325 1.19097341451739 -1.8718630147104707 0.41080492421017495 0.36670046384002175
0.08617395244540932 -0.5254761382521098 -1.5980939042707552 -0.9120757108600084 -0.5893230163463443 -1.2150176774711359 1.0820510183513143 -0.7500912613112632
-0.4867905363211922 -0.5800288773884855 0.6601184437118014 0.565471183592746 0.576006006094188 0.8237754127390728 1.2502725104687553 0.3092900875944586
